chatbot/data.pth (torch, 32490 bytes, 6 tensors)

l1.weight f4 [8, 432]
000000 b4 93 c0 be a0 85 f2 3f b7 9b 60 40 2e ea 44 3e
       -0.3761269 1.8947029 3.509504 0.19229957
000010 54 35 a1 3f ab a3 85 3f fc 03 11 40 8d a5 45 be
       1.25944 1.0440573 2.2658682 -0.19301434
000020 24 d7 3b 3f b6 9c 52 3f 28 e2 9e 3f 87 5d 9b be
       0.73375154 0.8227037 1.2412767 -0.30344793
000030 22 58 80 3f 81 86 fb bf d7 8c a4 3d a7 89 72 3e
       1.0026896 -1.9650422 0.080346756 0.23685323
000040 72 d2 ca bd 28 be 4e bd 3b 5e cc bf 70 4c 4d 3f
       -0.099034205 -0.050474316 -1.5966257 0.8019476
000050 c7 8f 03 c0 f6 23 19 bf da 67 aa be 6b 5f 1e bf
       -2.0556505 -0.598205 -0.33282357 -0.61864346
000060 33 3d e7 bf cf 9b 14 be 9b 94 06 40 c2 7e 10 3e
       -1.8065552 -0.14512561 2.1028202 0.14110854
000070 1b 0d 80 3f f4 1d 09 40 9c 37 b6 40 a7 fb ee 3f
       1.0004 2.1424532 5.6942883 1.8670548
000080 70 d3 a7 bf 25 c1 4b 3f 53 6f 02 3f 33 b4 0b 40
       -1.3111401 0.7959159 0.5095112 2.1828735
000090 7e 60 27 bf e1 30 c5 3e 06 05 bc 3d 81 f5 94 3f
       -0.6538161 0.38513854 0.09180646 1.1637422
0000a0 da 7c a0 3d e7 da ac 3f 93 bc 2d 40 56 c0 0e bf
       0.078363135 1.3504304 2.7146347 -0.5576223
0000b0 0e 3c 32 3f 15 0c 51 3f 4e cf c2 3f f3 4a f3 be
       0.69622886 0.8165906 1.5219514 -0.4751812
0000c0 9a 9f 9b 3f 53 21 2c 40 f9 68 58 bf 10 cf bc 3f
       1.2158082 2.689534 -0.84535176 1.475069
0000d0 a6 15 f8 be e0 6c 1b bf fe 5e c9 3e 92 32 10 3f
       -0.48454016 -0.60713005 0.39330286 0.56327164
0000e0 d2 1f 24 40 6f ee 2e 40 97 ad ec 3f 4d 6a 96 3d
       2.5644422 2.7333028 1.8490475 0.07344494
0000f0 51 cb 37 3f fb 65 ee 3e df 49 ac 3f b3 fb f4 3e
       0.7179461 0.4656218 1.3460044 0.4784828
000100 8f 5c fe be ca b5 d3 3f 3d 0b 2a 40 63 51 4d 3e
       -0.49679992 1.6539853 2.656936 0.20050578
000110 9f 10 4b 3f e3 00 2b 40 dd 4a f4 3f 2a 2b ee bc
       0.79322237 2.6719291 1.9085346 -0.029073317
000120 aa 44 ce 3f a8 64 74 bf f5 13 70 3f 50 d5 5d 3f
       1.6114705 -0.9546609 0.9378045 0.86653614
000130 8f f7 91 3f ad b5 28 3f fd 3c 79 3f 25 b1 08 40
       1.1403674 0.65902215 0.97358686 2.135812
000140 e1 91 e0 3f d6 43 3f bf ee 4f 95 3f b7 38 c3 bd
       1.7544519 -0.74712884 1.1665018 -0.09532302
000150 f8 e7 61 bd df c8 50 3f d2 2a 97 3f f0 ce 4d 3f
       -0.055152863 0.81556505 1.1809943 0.80393887
000160 7e b0 3e be 14 c5 e3 3f 35 c5 bd 3f 80 bb b4 be
       -0.18622014 1.7794518 1.4825808 -0.352993
000170 3c 90 65 be b8 23 d2 be 98 ed 43 be 20 a1 3a 40
       -0.22418302 -0.41042876 -0.19133604 2.9160843
000180 e9 d2 a1 3f c6 96 b5 bc 94 92 f9 3d d1 44 86 bf
       1.264249 -0.022166621 0.12186161 -1.0489751
000190 2e 1c 1d 3f 0c 3a 1b 3f bd 8b b4 3f e0 4e 2d 40
       0.61371124 0.6063545 1.4105145 2.7079391
0001a0 99 31 92 bf a7 97 67 3f 2c 21 a3 3f 60 53 28 40
       -1.1421386 0.9046578 1.2744498 2.6300888
0001b0 7a 4f 2a bf 31 a5 54 be 14 00 92 bd c5 a8 84 3e
       -0.6652752 -0.2076614 -0.07128921 0.2591001
0001c0 e2 48 b9 3f 7c 02 3f 40 b2 6d e4 3f 94 70 cb 3f
       1.4475367 2.9845266 1.7845976 1.5893731
0001d0 dc e9 35 3e 4a fd eb 3f ef 8b 06 40 ed 5b 4c 3f
       0.17764992 1.8436673 2.1022909 0.7982777
0001e0 4d a4 0e 40 7a a1 01 40 37 06 ee bf 1d 3e 2a 3e
       2.2287781 2.0254807 -1.8595647 0.16625257
0001f0 28 bc 18 40 1d 67 9d 3f 72 df 96 3f 9c 0a 2a bf
       2.3864841 1.2297093 1.178694 -0.6642244
000200 6d 75 6b 3e d9 2a 38 bf a9 c8 e6 3e 48 a6 0c 40
       0.22994013 -0.7194038 0.45074967 2.197649
000210 37 69 b3 3f c3 06 43 bf 0a ce 49 40 52 17 9a bf
       1.4016484 -0.7618219 3.1532006 -1.2038367
000220 5a cd 2e 3e f3 fe d7 3f 06 96 90 3f 28 1f 5d bf
       0.17070523 1.6874679 1.1295784 -0.86375666
000230 f4 c1 28 be b7 15 36 3f dc cc 63 be 5a db 55 bd
       -0.16480237 0.71126884 -0.22246116 -0.052211143
000240 cb be c7 3f 60 8f ac 3e c6 2c 13 40 e4 f9 9d bd
       1.56051 0.33703136 2.2996078 -0.077136785
000250 38 0c b9 be f4 53 88 3e 14 d7 71 bf 92 77 28 3f
       -0.36142135 0.2662655 -0.9446881 0.6580745
000260 84 ab 2d 40 5d 12 8e bc e3 08 2c 40 fc 7f e7 3e
       2.7135935 -0.01734274 2.6880424 0.45214832
000270 ff 85 ff bf ed 3f f2 3f d7 1e ee 3f ce 89 03 3f
       -1.9962767 1.8925759 1.8603162 0.5138215
000280 be 88 e6 be 0c 9f 12 40 21 ed d3 3f f2 45 37 3f
       -0.450262 2.2909575 1.6556741 0.71591103
000290 57 04 9d 40 17 d0 56 be fe 70 6c be b4 34 db 3f
       4.90678 -0.20977817 -0.23089978 1.7125459
0002a0 36 0b 0d 40 b1 89 90 bf e4 f3 f4 3e 12 91 30 40
       2.2038093 -1.129202 0.47842324 2.7588544
0002b0 56 2a ed 3f 53 ab 7d 3e 76 21 ba 3f b6 d6 48 40
       1.8528545 0.24772386 1.4541461 3.138105
0002c0 2f 46 30 40 47 38 b8 40 cd d3 8b 40 da 5a 29 40
       2.7542837 5.75687 4.3696046 2.6461701
0002d0 7f 0c 2c 40 4f 40 63 3f 1e af 8e 3d 87 c1 31 40
       2.6882627 0.8877 0.06966995 2.777437
0002e0 dd 57 59 be 42 b9 3f 3f 03 90 2e 40 0b 55 36 bf
       -0.21224923 0.74892056 2.7275398 -0.71223515
0002f0 f3 b3 20 be 51 20 20 be 09 12 d0 3f 28 db f1 3e
       -0.15693645 -0.15637328 1.6255504 0.47237515
000300 45 03 0f 3f c0 97 68 3f e0 d6 1b 40 50 85 10 40
       0.55864364 0.9085655 2.43499 2.2581367
000310 6b 8d 90 be 3f f0 99 3f ee 48 87 3d c0 e5 14 40
       -0.28232893 1.2026442 0.06605707 2.3265228
000320 5b 7c 43 bf a6 00 f5 3e 15 16 f9 3f 86 97 0a 40
       -0.76361626 0.47852057 1.9459864 2.1654983
000330 10 0c 76 40 06 d9 66 bd 46 3d a7 3e 10 54 d4 3e
       3.8444862 -0.056359313 0.32663935 0.41470385
000340 af ba a7 bf b0 73 c6 3f 08 1c c4 3f 55 f8 b2 3f
       -1.3103846 1.5504055 1.5321054 1.3982035
000350 0b b6 50 bf c8 c3 e4 be e9 04 88 3d 5b 87 61 3f
       -0.81527776 -0.4468062 0.066415615 0.8809716
000360 7a 91 86 bf b0 5b 7e bf 58 bf 80 3e 67 7a 7a 3f
       -1.0513146 -0.99358654 0.25145984 0.9784302
000370 5f a9 1b 40 a2 66 ab be 58 d8 de 3f a2 cd ca 3f
       2.4322126 -0.3347674 1.7409773 1.5844004
000380 75 a5 81 bf 71 d0 03 3f 5d c4 8e bf 65 4b 3d bf
       -1.0128618 0.5148993 -1.1153675 -0.7394317
000390 0e b6 49 be 79 dc 69 3f 3b c2 e5 bf 2b 33 88 3f
       -0.19698355 0.9135204 -1.79499 1.0640615
0003a0 6f f2 b7 3e d8 ea 07 40 93 9d d4 3f 68 cc a0 bf
       0.3592715 2.1237087 1.6610588 -1.256238
0003b0 ae 96 db be 41 79 ff 3e a1 e8 7a 3e 96 6b 18 3e
       -0.42888397 0.49897197 0.24502803 0.14884791
0003c0 7e ac 02 40 07 63 7b bf ad bc 0a 3f 6c 38 ec 3f
       2.041778 -0.9819798 0.54194146 1.8454719
0003d0 29 bb 4e bf 4b de 56 3f 27 1a a9 bf 99 85 c5 3f
       -0.80754334 0.8393294 -1.3211106 1.5431396
0003e0 99 15 26 3f 55 b4 99 be 07 8d f7 be 96 44 cf 3e
       0.64876705 -0.30020395 -0.48349783 0.40482014
0003f0 1f 7d 0e 40 8f cf b4 3f bf 46 66 40 e6 3e 4c 3f
       2.2263868 1.4125842 3.598068 0.79783475

l1.bias f4 [8]
000000 b9 8e aa 3f b5 89 82 3f 8a fe 64 3f f0 3a b7 3f
       1.3324805 1.0198275 0.89450896 1.4314861
000010 e8 77 53 3f 9a 2c 3e 3f 16 c2 56 3f 4f c5 42 3f
       0.8260484 0.74286807 0.838899 0.7608232

l2.weight f4 [8, 8]
000000 15 a9 c5 3f 26 d3 92 3f e3 ce a7 bf 9d 8b fb be
       1.5442225 1.1470687 -1.3110012 -0.49129954
000010 5e bf 5f bf d2 e2 94 3f 3e f3 b2 3f 7c b7 4a 40
       -0.8740138 1.163172 1.3980482 3.167449
000020 e5 64 2b bf 24 2b 52 40 9a 16 21 40 6f 44 d3 3d
       -0.6695083 3.283883 2.5170045 0.10315787
000030 01 5c d4 3e 1f 7f 6e bf 87 a1 8c 3f 2e e7 92 bf
       0.41476443 -0.9316272 1.0986794 -1.14768
000040 be 94 a0 3e d5 e9 b8 3f 2b bd 6d bf f0 3e 3f 40
       0.3136348 1.444636 -0.9286677 2.9882164
000050 ca 63 be bd 5e 9f 3b be e2 df e0 bf 83 44 28 bf
       -0.09296377 -0.18322513 -1.7568324 -0.6572954
000060 dd 01 44 40 25 23 28 3f 95 e5 8e bf 13 ce 5d 3e
       3.0626137 0.65678626 -1.1163813 0.21660642
000070 e9 84 1d 40 44 8f 2d bf e7 54 42 bf f2 fe ce bf
       2.4612372 -0.6779673 -0.759108 -1.6171553
000080 a7 64 0b 3f 69 30 23 be 43 d1 52 3f 0d ec 1d 3f
       0.5445046 -0.15936436 0.8235056 0.6168831
000090 b2 19 7d be 67 02 35 c0 6f 5d 0b 40 9e f2 0c 3f
       -0.24716833 -2.8282716 2.1775777 0.55057704
0000a0 81 cf 86 3f d0 f6 c0 bf a0 62 f6 3e 5d 72 1a 40
       1.0532075 -1.5075321 0.4812212 2.4132302
0000b0 77 d5 d7 bf 66 de 00 3f fb 4e d3 3f a1 01 41 3f
       -1.6862019 0.50339353 1.6508478 0.7539311
0000c0 49 8f a9 3f d0 e4 8a 3f c8 90 b5 3f 8e a4 a5 3e
       1.3246852 1.0851078 1.4184809 0.32352108
0000d0 2f 44 05 bf 53 01 e7 bf 88 1a 0f c0 3b 28 fe 3f
       -0.52057165 -1.8047279 -2.2359943 1.9856027
0000e0 de 03 eb 3d 48 78 03 c0 0b 89 12 40 a7 6f 82 3f
       0.11475347 -2.0542164 2.2896144 1.0190324
0000f0 f6 9a 1c 40 fd 64 03 40 01 45 8c bf 55 6e 0a bf
       2.446958 2.0530388 -1.0958558 -0.54074603

l2.bias f4 [8]
000000 c1 45 02 3f c0 87 ee 3c e3 ef 92 3f 01 0c 09 3f
       0.50887686 0.029117465 1.1479458 0.5353394
000010 06 61 bf 3f 2c 5a 1c bd 2f 6f de bd 66 13 1a 3f
       1.4951484 -0.038171932 -0.1086105 0.6018585

l3.weight f4 [159, 8]
000000 72 c5 71 bf 6c 01 55 bf 0d 10 49 c0 00 8b a0 3e
       -0.944419 -0.83205295 -3.1416047 0.3135605
000010 1d c4 cb 3e 45 3e a0 bf d5 64 b1 3f 20 6b 7d bf
       0.3979806 -1.2519003 1.3858896 -0.98991585
000020 3d d2 c6 3e f3 1a a4 bf c2 d9 51 c0 b7 2a fd bf
       0.38832274 -1.2820724 -3.278916 -1.977866
000030 bc 92 21 c0 f4 ec 97 be ce 94 00 3e d5 b7 56 bf
       -2.524581 -0.29672968 0.12556764 -0.83874255
000040 7a 7d 79 3e 27 6e 11 be b8 0a db 3f 69 f4 39 c0
       0.24364272 -0.14202176 1.7112646 -2.9055426
000050 74 c4 f1 c0 ca ea d3 bd e4 c6 97 c0 9d 7d 8a bf
       -7.555231 -0.10347517 -4.7430286 -1.0819584
000060 6f 29 ae 3e 3d 59 12 c0 5e ca 6c c0 70 fb 00 bf
       0.34015986 -2.2866967 -3.6998515 -0.50383663
000070 6a e8 be be d6 5c 7b 3d 9b 46 21 3f c2 87 93 bf
       -0.37286693 0.061367832 0.6299836 -1.1525805
000080 59 34 2e bf 3b b4 98 be 49 ed 31 3e 2c 70 d1 3d
       -0.68048626 -0.29825005 0.17375673 0.10226473
000090 51 d6 37 3e af 9c 1d c0 1d ce ae 3e ed 42 57 be
       0.17952849 -2.4626882 0.34141627 -0.21021624
0000a0 4e 93 e1 bf 2d 50 d1 3e 4f 3d f1 bf a6 80 05 c1
       -1.7623079 0.40881482 -1.8846835 -8.343908
0000b0 4c 1c 37 3e ec 91 a8 3e 4b ce 9c 3f 5d 79 94 be
       0.17881888 0.3292383 1.2250456 -0.28998843
0000c0 da 78 03 bd 34 cf 30 c0 9f 61 ca be 43 9d a4 bf
       -0.032097675 -2.7626467 -0.39527604 -1.2860492
0000d0 fc 2b 99 bf c2 f2 64 3e 8c 53 0b be ba f8 89 3d
       -1.1966548 0.2235823 -0.1360609 0.06736894
0000e0 98 43 ca be 01 5c 86 c0 49 65 ba 3f f4 3a 1a bf
       -0.39504695 -4.198731 1.456216 -0.60246205
0000f0 e4 cb 40 c0 c1 62 2a 3f 72 8c 98 3c 19 b7 51 bf
       -3.0124445 0.66556937 0.018621657 -0.8192001
000100 a1 a4 30 bd 5d 07 04 c0 ca c8 d9 3e 51 bc 0e 3f
       -0.043125752 -2.0629494 0.42536002 0.557561
000110 f7 f8 c0 bf 07 8f 45 be 6c 82 22 be ec d3 f4 bf
       -1.5075978 -0.19292842 -0.15870064 -1.9127173
000120 64 f2 92 3e 7f 4a b5 c0 52 d1 54 bd 0d 6e 06 c0
       0.28700554 -5.6653438 -0.051957436 -2.100467
000130 5e 64 44 be 1f de 90 3e 54 33 1c 3f e2 0f d5 bf
       -0.19178912 0.28294465 0.6101582 -1.6645472
000140 7f 03 b0 3d 09 6d 62 c0 95 9c 98 3e 33 a1 c5 bd
       0.08594417 -3.537905 0.29806963 -0.09649887
000150 dd c6 88 c0 65 66 65 bf 7b fe e0 3e 0a ca 57 bd
       -4.2742753 -0.89609367 0.43944153 -0.052682914
000160 4b 2f 26 bf 3b 9f 7b c0 ac a5 6c 3f 22 f9 bf be
       -0.64915913 -3.9315937 0.92440295 -0.3749476
000170 df 3d 79 be 70 7a 81 bc 46 fe 85 3f 06 6d e1 bf
       -0.24340008 -0.015805453 1.0468223 -1.7611396
000180 51 a1 c6 3d 99 26 a9 c0 4a 0e 7b bf 81 13 6a 3f
       0.096987374 -5.2859616 -0.9806868 0.9143601
000190 7d b8 12 c0 e1 22 85 bf f0 02 89 c0 4c 83 76 be
       -2.2925103 -1.0401269 -4.2816086 -0.24073523
0001a0 2a 41 74 3e 71 f3 65 bf 99 85 cf be fc 8b 91 c0
       0.23852983 -0.8982459 -0.40531614 -4.548338
0001b0 13 21 87 bf cb ae 4a 3f 38 9c d5 bf 7b 55 d8 bf
       -1.0556968 0.7917296 -1.6688299 -1.6901087
0001c0 8c df a9 be 2f 88 b4 bf 9c da af 3e 18 a6 12 bf
       -0.33178365 -1.410406 0.34346473 -0.5728469
0001d0 f6 2f aa be 6b 3f 26 3d 5d fe ee 3e d3 83 a2 c0
       -0.33239716 0.040587824 0.4667844 -5.078592
0001e0 f8 cd 66 bf 61 0a a7 3c 0d 13 27 be 45 a8 aa be
       -0.90158033 0.020390691 -0.16315861 -0.33331504
0001f0 9a 67 40 3f 77 9d 8b bc b9 25 c2 3e af f2 a5 bf
       0.75158083 -0.017042859 0.37919405 -1.2964686
000200 97 2b 91 be a9 08 d0 3e b8 45 d5 c0 3b ae 18 c0
       -0.2835357 0.40631607 -6.6647606 -2.3856342
000210 74 f0 dc 3e 5a 89 f0 be e7 ae 2b 3e 49 6b ca c0
       0.431522 -0.4697979 0.16765939 -6.3255963
000220 63 06 f3 bf cc 2e fd 3e dc 6d 91 3f b6 d1 80 3f
       -1.8986324 0.49449766 1.1361651 1.0063999
000230 3f c1 e2 bf c7 a1 8d c0 3a 39 91 bf 29 a7 2e c0
       -1.7715224 -4.425998 -1.1345589 -2.7289526
000240 48 d8 ed bf 51 8d d6 bf b6 24 de 3f 89 6a 9c 3f
       -1.8581629 -1.6761876 1.7354953 1.2220012
000250 f4 a0 7c 3e 88 87 1c 3f d1 f2 40 be b8 d3 7d c0
       0.24670774 0.61144304 -0.18842627 -3.9660473
000260 3a 95 29 c1 67 a8 9e 3f c5 96 47 bf b3 45 c3 bf
       -10.598932 1.2395142 -0.7796443 -1.5255646
000270 37 60 89 3d 90 5b 13 c0 53 71 01 3f 8f 8e 66 3e
       0.06707805 -2.3024635 0.50563544 0.2251532
000280 3e e0 ed c0 e9 bc 30 3f a5 99 a3 3f 3c e5 4f bf
       -7.4336233 0.69038254 1.2781264 -0.8120916
000290 4b 5f 5c be 62 c7 9b c0 ba e2 90 3f a5 dc a1 bf
       -0.21520726 -4.8680887 1.1319191 -1.264546
0002a0 81 26 0a c1 b5 ce 47 be 81 ae 21 bf 21 56 60 3f
       -8.6344 -0.19512446 -0.63156897 0.8763142
0002b0 be 51 a7 bf 97 25 ce c0 a4 44 90 c0 3b 1c cf 3d
       -1.3071821 -6.4420886 -4.508379 0.101128064
0002c0 ea 5f d4 bf 76 08 0d 3e b2 0b de 3e aa 95 99 3e
       -1.6591771 0.13772759 0.43368298 0.29996997
0002d0 e9 58 16 c1 be 1d c1 bc a5 36 0d c0 f1 54 74 3e
       -9.396707 -0.023573752 -2.2064602 0.23860528
0002e0 25 fa d6 be 48 05 8f bf 88 65 ee bd 8d f5 12 3f
       -0.4198772 -1.1173487 -0.11640459 0.5740593
0002f0 db 52 27 bf 0a e2 a7 bf 36 10 5c 3f c0 78 5f c0
       -0.653608 -1.3115857 0.85962236 -3.491745
000300 95 e1 87 bf 10 77 64 3b 12 aa c9 c0 00 c4 ed 3e
       -1.0615717 0.0034861006 -6.3020105 0.464386
000310 b6 fc 0d 3f 75 6e 11 bf 2f bd 31 3f 0a fe 61 bf
       0.5546373 -0.5680917 0.69429296 -0.8827826
000320 f7 e2 7e c0 b4 27 8e 3f 11 ad 55 3f d3 92 54 c0
       -3.9826028 1.1105866 0.83467203 -3.3214614
000330 a6 9d 97 be be 42 23 c0 31 e6 04 3f 43 18 84 bf
       -0.29612464 -2.5509486 0.51913744 -1.0319904
000340 26 4e 80 3d 4c 1d 2e c0 51 ae d9 c0 a8 1f 03 3f
       0.06264906 -2.7205381 -6.802529 0.5122018
000350 46 8c c1 c0 16 00 8f 3e 9a 7b 01 c0 7b 98 1a 3b
       -6.048373 0.27929753 -2.023169 0.002358942
000360 f2 8a c8 bf b5 10 9c bc 94 8f 93 c0 19 2c 07 3f
       -1.5667403 -0.019050935 -4.6112766 0.5280166
000370 4e c2 ed c0 ed ec 98 c0 ae 61 c5 c0 6a a1 1a 3f
       -7.429969 -4.7789216 -6.168174 0.6040255
000380 ab e5 8f bf be 2e 4b c0 3a 98 1f bd 95 d4 52 3f
       -1.1241964 -3.174728 -0.038963534 0.82355624
000390 52 96 aa bf b1 74 b6 bf c7 01 29 3e 42 c2 1d be
       -1.3327124 -1.4254361 0.16504584 -0.15406135
0003a0 4c b5 cb be a4 e8 0e c0 60 b4 74 be 78 31 86 3f
       -0.39786756 -2.2329493 -0.23896933 1.0483847
0003b0 f9 1e ab bf f7 67 ad c0 c7 4c 17 3f 49 49 a2 bf
       -1.3368827 -5.418941 0.5910153 -1.2678615
0003c0 aa 61 1a bf ad b0 b9 be f0 f9 dd 3e 80 31 8b 3f
       -0.60305274 -0.36267605 0.4335475 1.0874481
0003d0 31 48 38 c0 a6 4c c0 bd a8 f5 93 bf be c2 ff bf
       -2.8794062 -0.093896195 -1.1559343 -1.9981306
0003e0 e8 ae 3b c0 62 a9 ad bd 23 9a 75 c0 5f 1e d8 3e
       -2.9325504 -0.08479573 -3.8375328 0.4221067
0003f0 7d cd 07 3f 98 b0 67 c0 bf 8f a6 3f 91 57 f0 bd
       0.53047925 -3.6201534 1.3012618 -0.11735452

l3.bias f4 [159]
000000 8a 70 39 bf b7 26 50 bf f2 77 fa be 61 10 c2 be
       -0.72437346 -0.81309074 -0.48919636 -0.3790312
000010 b4 a0 ae 3d e6 32 49 c0 6e 1c 75 bf 95 6d 1b bf
       0.085267454 -3.1437316 -0.95746505 -0.60714084
000020 43 ed b6 bf b9 77 72 bf 62 e9 6f 3e 62 80 55 bf
       -1.4291157 -0.9471393 0.23428872 -0.8339902
000030 00 87 9e be ed 44 b8 bf 8e 8f 17 bf ff f8 bb bd
       -0.30962372 -1.4396034 -0.5920342 -0.091783516
000040 fb d4 89 bf e0 62 96 bf cd 03 a0 3d 77 3c c2 bf
       -1.0768121 -1.1748924 0.07813225 -1.5174702
000050 05 27 b7 bf 73 0b 20 c0 50 1f 9d bc e0 77 34 bf
       -1.4308783 -2.5006988 -0.01917997 -0.70495415
000060 05 7b 51 c0 57 56 d7 be b3 1e 0b c0 c8 71 4d be
       -3.2731335 -0.4205806 -2.1737487 -0.20062935
000070 51 80 89 bf 11 c4 6a bf 8d e0 cd bf 59 d7 b0 be
       -1.0742284 -0.91705424 -1.6084152 -0.34539297
000080 5b 36 02 c0 cc 8d 26 bf 82 ca 31 bf e5 21 b5 bf
       -2.0345676 -0.65060115 -0.6944963 -1.4150969
000090 8c 05 73 be 03 85 89 3e fa 0d c0 be cd a3 3b c0
       -0.23732585 0.26859292 -0.37510663 -2.9318726
0000a0 25 22 b0 bf 26 d2 9c 3e f1 3b 25 3f 62 90 1e bf
       -1.376042 0.3062908 0.6454459 -0.6193906
0000b0 c9 3e bf be 77 80 b3 3d e6 51 0f 3f 4b 42 db 3e
       -0.3735259 0.08764737 0.5598434 0.42824015
0000c0 8f d2 ea be 54 c4 43 bf 3d ac 84 bf 9c d6 37 bf
       -0.45863768 -0.7647145 -1.0365063 -0.7181184
0000d0 dd 14 99 be 0d c2 53 bf af ab b4 bf 87 00 b9 bf
       -0.2989873 -0.82717973 -1.4114894 -1.4453286
0000e0 98 68 8c bf d4 c5 56 be e9 c9 df bf 00 90 74 bf
       -1.096942 -0.20973903 -1.7483493 -0.95532227
0000f0 73 b4 18 bf a8 3b 7e bf df d4 8c bf cc c6 91 be
       -0.59650344 -0.9930978 -1.1002463 -0.28471982
000100 31 90 2f bf 1e 9d 2e be 7a 88 34 c0 2d 41 c1 bf
       -0.68579394 -0.17052123 -2.8208299 -1.5098015
000110 94 f1 f8 3e 23 ba 9e be 43 e1 9b bf 1f a0 4a be
       0.4862181 -0.31001386 -1.217812 -0.19787644
000120 bc 34 d2 3e 3e 55 80 3e c5 87 4d bf 78 b1 a7 bf
       0.41055858 0.25065035 -0.8028529 -1.3101034
000130 4b 67 5e 3f 1c 68 b7 bf 9d 32 9e bb 9a 90 c3 bd
       0.8687636 -1.4328647 -0.004827811 -0.09549065
000140 0a da 94 bf 13 ef f1 bf 47 ab 00 c0 05 d2 f5 bf
       -1.162904 -1.8901085 -2.010454 -1.9204718
000150 4f f1 ae be 0f f8 67 3e b2 8b 40 3e 7e 58 8c bf
       -0.3416848 0.2265322 0.1880329 -1.0964506
000160 ca 0d fa be d0 6d 62 bc 76 0b 71 3e c8 3f 19 c0
       -0.48838645 -0.013820127 0.23539528 -2.394518
000170 9f 7a 25 c0 1e e7 9c be 2f 2c e5 3d 40 e1 41 3e
       -2.5856092 -0.30645078 0.11190068 0.18933582
000180 3e 31 b7 bb c9 2c d7 bf bd cd 16 bf 97 09 0d c0
       -0.005590587 -1.6810542 -0.5890768 -2.2037103
000190 f2 8b 30 be c4 22 08 3f 2e e6 19 bf c6 8f e6 bf
       -0.17240885 0.5317805 -0.6011685 -1.8012626
0001a0 e9 7d 07 bf 9d df e7 3e 75 c9 6b be c9 e1 d7 be
       -0.529265 0.4528779 -0.23026069 -0.42164448
0001b0 1d 48 01 3f 51 ae 70 bf f4 76 20 be c1 84 cf bf
       0.5050066 -0.94015986 -0.15670377 -1.6212388
0001c0 03 e7 e6 be 2e a9 e9 be a1 02 01 3f a4 f5 4a bf
       -0.45098123 -0.45636886 0.50394636 -0.7928107
0001d0 4a 0f c0 bf 67 1a 12 bf 50 c8 9a bf 9e 40 15 bf
       -1.5004666 -0.57071537 -1.209238 -0.58301723
0001e0 22 c8 00 bf dc 55 2f be dd 82 d1 3f 2e cc 3e be
       -0.5030538 -0.17122597 1.6368061 -0.18632576
0001f0 62 50 26 be 3b b4 73 bd 92 92 6b 3f 73 ce 89 bf
       -0.16241601 -0.059498053 0.92020524 -1.0766128
000200 2b f1 25 bf c8 e9 4c c0 42 de 91 bf 65 8f 53 bf
       -0.6482112 -3.2017689 -1.1395953 -0.8264068
000210 bb 80 78 be 82 87 9a bf 98 25 82 bf 6e 22 a0 bf
       -0.24267857 -1.2072604 -1.0167723 -1.2510507
000220 f4 af 7a bf c9 8d 0d c0 fb 5f 2a bf d3 ce 0d bf
       -0.97924733 -2.2117789 -0.66552705 -0.55393714
000230 51 08 dc bf f9 ec 23 c0 43 69 88 bf cc fe ab bf
       -1.7190038 -2.5613387 -1.0657123 -1.3437133
000240 81 95 38 bf 2a bf 0a bf 10 00 62 bf 6c 0d 3e bf
       -0.72103125 -0.54197943 -0.88281345 -0.7423923
000250 33 fb 62 3e f4 df 52 be eb d4 01 c0 e4 4a 27 be
       0.22166137 -0.20593244 -2.0286205 -0.16337162
000260 87 d9 32 bf 0e 26 95 bf 1b 1c 2d bf 40 b3 f1 bc
       -0.6986317 -1.1652238 -0.6762101 -0.029504418
000270 82 f8 95 bd 26 0f cd 3c 1f ff c1 bf
       -0.0732279 0.025031637 -1.5155982
